Model: "sequential_1"
_________________________________________________________________
Layer (type)                 Output Shape              Param #   
=================================================================
lstm_1 (LSTM)                (32, 4)                   96        
_________________________________________________________________
dropout_1 (Dropout)          (32, 4)                   0         
_________________________________________________________________
activation_1 (Activation)    (32, 4)                   0         
_________________________________________________________________
dense_1 (Dense)              (32, 1)                   5         
_________________________________________________________________
activation_2 (Activation)    (32, 1)                   0         
=================================================================
Total params: 101
Trainable params: 101
Non-trainable params: 0
_________________________________________________________________

Running Mean Length : 30
Batch Size : 32
Timesteps : 1
Learning Rate : 0.01
Epochs : 20
Loss Function : mse
Mean Type : none
val_loss : 0.021110648289322853
loss : 0.031908913153327174