Model: "sequential_1"
_________________________________________________________________
Layer (type)                 Output Shape              Param #   
=================================================================
lstm_1 (LSTM)                (32, 64)                  16896     
_________________________________________________________________
dropout_1 (Dropout)          (32, 64)                  0         
_________________________________________________________________
activation_1 (Activation)    (32, 64)                  0         
_________________________________________________________________
dense_1 (Dense)              (32, 1)                   65        
_________________________________________________________________
activation_2 (Activation)    (32, 1)                   0         
=================================================================
Total params: 16,961
Trainable params: 16,961
Non-trainable params: 0
_________________________________________________________________

Running Mean Length : 30
Batch Size : 32
Timesteps : 1
Learning Rate : 0.01
Epochs : 20
Loss Function : mse
Mean Type : uniform
val_loss : 0.07332085935903866
loss : 0.007756851637070792