Model: "sequential_1"
_________________________________________________________________
Layer (type)                 Output Shape              Param #   
=================================================================
flatten_1 (Flatten)          (None, 10)                0         
_________________________________________________________________
dense_1 (Dense)              (None, 64)                704       
_________________________________________________________________
activation_1 (Activation)    (None, 64)                0         
_________________________________________________________________
dense_2 (Dense)              (None, 64)                4160      
_________________________________________________________________
activation_2 (Activation)    (None, 64)                0         
_________________________________________________________________
dense_3 (Dense)              (None, 1)                 65        
=================================================================
Total params: 4,929
Trainable params: 4,929
Non-trainable params: 0
_________________________________________________________________

Running Mean Length : 10
Batch Size : 32
Timesteps : 10
Learning Rate : 0.001
Epochs : 20
Loss Function : mse
Mean Type : uniform
val_loss : 0.032896991763145256
loss : 0.021578776991100446